archive/best_model.pth (torch, 232674 bytes, 43 tensors)

fluid_net.net.0.weight f4 [64, 4]
0	0xbc3e826b	-0.011627774
1	0x3e840a11	0.2578893
2	0xbecedaed	-0.40401402
3	0xbeba211a	-0.3635338
4	0xbe30f630	-0.17281413
5	0x3df7c717	0.1209852
6	0xbce2df86	-0.027694475
7	0x3ed65d17	0.41867897
8	0xbd1efba5	-0.038814206
9	0x3e1bd218	0.15216863
10	0xbe1c51de	-0.15265605
11	0xbddc1981	-0.10747052
12	0xbeddd9df	-0.43330285
13	0xbe92b7fe	-0.28656
14	0xbe339ceb	-0.17540328
15	0x3ce98399	0.028505133
16	0x3e489575	0.19588263
17	0x3e95f083	0.29285058
18	0xbea8a2bb	-0.32936653
19	0xbe6b1d8f	-0.22960494
20	0x3e2259e8	0.15854609
21	0x3ec49760	0.3839674
22	0xbda5dc77	-0.08098691
23	0x3ec0a916	0.37629002
24	0xbd8fbbe0	-0.07018256
25	0x3d535410	0.05159384
26	0x3ee3bdab	0.44480643
27	0xbef3820c	-0.47560155
28	0xbeb6f3dc	-0.35732925
29	0xbddb78bb	-0.10716387
30	0xbe3d68eb	-0.18497054
31	0x3ed5779a	0.4169281
32	0xbea9145e	-0.3302335
33	0xbe69edc1	-0.22844602
34	0xbea95db5	-0.33079305
35	0xbefcbafd	-0.4936141
36	0xbe7570d0	-0.23968816
37	0x3ec8e2b8	0.39235473
38	0x3e2e5c2f	0.17027353
39	0x3e963bdb	0.2934254
40	0x3cf38ca3	0.029730147
41	0xbe6f95dd	-0.23397012
42	0x3dacef2f	0.08444058
43	0xbeefe656	-0.4685542
44	0xbeba3576	-0.36368912
45	0xbe87ee00	-0.26548767
46	0x3e9d2981	0.30695727
47	0x3e8e9a7f	0.27852246
48	0xbe604e8e	-0.21904966
49	0xbc0a973d	-0.00845891
50	0x3e9d831b	0.30764088
51	0x3f023a14	0.5086987
52	0x3e461dca	0.19347301
53	0x3d8f4b04	0.0699673
54	0x3ea87bf7	0.32907078
55	0xbe975576	-0.2955739
56	0x3de435d6	0.11143081
57	0xbebbf2cc	-0.36708677
58	0xbeaa3b92	-0.33248574
59	0xbe4c232d	-0.19935293
60	0x3e6ffa0a	0.23435226
61	0x3e4bc3cc	0.1989891
62	0xbe87957d	-0.26481238
63	0x3e3e3289	0.18573965
64	0x3e828064	0.2548858
65	0xbd7eaf4f	-0.062178906
66	0x3c9a474d	0.018832827
67	0x3dd256a8	0.102704346
68	0x3e9b0e35	0.30284277
69	0x3ef1ea1f	0.47248933
70	0xbec0b52f	-0.37638232
71	0xbe30b3a3	-0.17256026
72	0x3e4aced1	0.19805457
73	0x3ed21d50	0.4103799
74	0x3edcf9c0	0.43159294
75	0x3ede52e5	0.43422619
76	0x3dca19e4	0.098682195
77	0xbeda5db2	-0.4264961
78	0x3cdb6ee9	0.026786285
79	0xbe8f5f10	-0.28002214
80	0xbef57dcf	-0.47947547
81	0x3ece6116	0.40308446
82	0x3ead8603	0.33891305
83	0xbf0379f6	-0.5135797
84	0x3dad9a3d	0.08476684
85	0xbda0e266	-0.07855682
86	0xbda17e9f	-0.07885479
87	0xbe5c5526	-0.21516857
88	0x3e3f3f0f	0.18676399
89	0xbe936e49	-0.28795078
90	0x3e20c542	0.15700248
91	0x3e759f9f	0.23986672
92	0x3eb493a0	0.3526888
93	0x3e3ad604	0.18245703
94	0xbefc1c11	-0.49240163
95	0xbeb8534c	-0.3600105
96	0x3e7c575d	0.24642701
97	0x3dd395db	0.10331317
98	0xbec59e6a	-0.38597423
99	0xbe8d0f02	-0.27550513
100	0x3eef1c71	0.46701387
101	0x3eaa5fae	0.33276123
102	0xbe548e22	-0.20757344
103	0xbde89646	-0.113567874
104	0xbee874e0	-0.4540167
105	0x3bf37c16	0.0074305637
106	0xbeb049e7	-0.34431383
107	0xbeccb7b8	-0.39983916
108	0x3bd64697	0.0065391767
109	0x3da632da	0.08115168
110	0xbe58518a	-0.21124855
111	0x3e920cd7	0.2852542
112	0xbe8b3598	-0.27189326
113	0x3edf8105	0.43653122
114	0x3ea9dbf1	0.33175614
115	0xbed1f921	-0.41010383
116	0xbdfd68b0	-0.12373483
117	0x3d1c993d	0.038232077
118	0x3d95cd09	0.07314498
119	0x3e0ba3f2	0.13636759
120	0x3e4b454f	0.19850658
121	0x3c931089	0.01795222
122	0xbe836488	-0.25662637
123	0x3e7e8c03	0.24858098
124	0xbef26dd9	-0.47349432
125	0xbe95751a	-0.29190904
126	0xbdd07add	-0.10179684
127	0xbe65187a	-0.22372618
128	0xbe19bede	-0.15014216
129	0xbec2b905	-0.38031784
130	0xbdbae514	-0.091257244
131	0x3df4468d	0.11927519
132	0xbea5ddcd	-0.32395783
133	0xbce257ed	-0.027629817
134	0x3eb5a793	0.3547941
135	0xbd83283d	-0.06404159
136	0x3d46edf5	0.048566777
137	0xbd172d32	-0.036908336
138	0x3dba49a4	0.09096077
139	0x3eb34390	0.35012484
140	0x3ede06b7	0.43364498
141	0x3e8b741e	0.27237028
142	0x3ee38ef1	0.44444993
143	0xbd46ef0c	-0.048567817
144	0xbeda6d16	-0.4266135
145	0xbe6851ef	-0.22687505
146	0x3eab0bc6	0.3340742
147	0x3d289d8b	0.04116587
148	0xbe7a20c5	-0.24426563
149	0xbebbd58a	-0.36686355
150	0xbeeb6380	-0.4597435
151	0xbedf90d8	-0.43665195
152	0xbd81f193	-0.06344905
153	0x3e8b7390	0.27236605
154	0x3e82b98d	0.2553219
155	0xbee95ab9	-0.45577028
156	0x3e9af683	0.302662
157	0xbebc17bb	-0.36736855
158	0xbdb2df43	-0.0873399
159	0xbe591723	-0.21200232
160	0xbdb9eae2	-0.090780035
161	0xbda17ba0	-0.07884908
162	0xbee22cea	-0.44174892
163	0xbee46d69	-0.44614723
164	0xbd4ad766	-0.049521826
165	0x3b4d5c7b	0.003133564
166	0xbe39c899	-0.18142928
167	0x3e589d7d	0.21153827
168	0xbedec0d5	-0.43506494
169	0xbd032705	-0.032019634
170	0x3ed790fa	0.42102796
171	0xbe41a0ae	-0.1890895
172	0x3ee7200a	0.4514163
173	0x3e2cda43	0.16880135
174	0xbee1b3d7	-0.4408252
175	0x3e9f4cac	0.31113183
176	0xbd68a847	-0.056801107
177	0xbe619cf0	-0.22032523
178	0x3ecaff29	0.39647797
179	0xbec6c33b	-0.38820824
180	0x3d41eaaa	0.047342934
181	0xbdcff8e5	-0.10154895
182	0x3eb236b0	0.34807348
183	0x3e1cff82	0.15331843
184	0x3e70a7a3	0.23501448
185	0x3e21eef0	0.15813804
186	0xbdc65cbf	-0.09685659
187	0xbdeaee3b	-0.1147122
188	0xbebe3510	-0.37149858
189	0x3e825f83	0.25463495
190	0x3ec0f0d8	0.3768375
191	0x3ed1036e	0.4082293
192	0xbeab5ffa	-0.33471662
193	0x3cd7cec9	0.02634372
194	0xbea3b71c	-0.3197564
195	0xbe8dad71	-0.27671388
196	0xbe8e937b	-0.27846894
197	0x3e1c8c3c	0.1528787
198	0xbe764b54	-0.24052173
199	0xbcca0244	-0.024659283
200	0x3c97019c	0.018433385
201	0x3e93cd37	0.28867504
202	0xbeb8c683	-0.36088952
203	0xbeb60eec	-0.3555826
204	0xbe928df1	-0.28623918
205	0x3eaf5558	0.342448
206	0xbe43b93a	-0.19113627
207	0x3edf1e9e	0.43578047
208	0x3e2c6c0e	0.16838095
209	0x3d6d1669	0.0578827
210	0x3c9fbb38	0.019498453
211	0xbde266c4	-0.11054757
212	0x3d6d0245	0.057863493
213	0xbdd7c601	-0.10535813
214	0x3b180800	0.0023198128
215	0x3d9390be	0.07205342
216	0xbec0e998	-0.37678218
217	0xbe7b682e	-0.2455146
218	0x3ec33637	0.381273
219	0xbec54cc1	-0.3853512
220	0xbcbc7d03	-0.023008829
221	0x3eecc61f	0.46244904
222	0x3e35c3ce	0.17750475
223	0x3c8ceb8f	0.017202167
224	0xbedce009	-0.43139675
225	0x3e72f9d7	0.23728119
226	0xbeaec589	-0.34135082
227	0xbe05dcd6	-0.13072523
228	0xbe22035b	-0.15821593
229	0xbceecb6e	-0.029149737
230	0x3b0a3b22	0.0021092375
231	0x3ed9d5e1	0.4254599
232	0x3d22fe9f	0.039793607
233	0x3ed03470	0.40665007
234	0x3e97bb74	0.29635203
235	0xbeb22aa7	-0.34798166
236	0x3e60a11a	0.21936455
237	0xbeb1b0e5	-0.34705272
238	0xbe539cde	-0.20665309
239	0x3e01b5cc	0.12667006
240	0x3e508a3b	0.2036523
241	0x3ea47e70	0.32127714
242	0xbe32288b	-0.17398278
243	0x3c921e4b	0.01783671
244	0x3e838b38	0.25692153
245	0xbef435c7	-0.4769728
246	0x3eadfcf9	0.33982065
247	0xbec65452	-0.38736206
248	0x39377de6	0.00017499141
249	0xbdc5f228	-0.09665328
250	0xbe736186	-0.23767671
251	0x3d379280	0.044817448
252	0x3ec1a63e	0.37822145
253	0xbe0e41ba	-0.1389226
254	0xbe91919e	-0.2843141
255	0xbe374966	-0.17899093

fluid_net.net.0.bias f4 [64]
0	0xbf012a8a	-0.50455534
1	0x3e6cd343	0.23127465
2	0xbe73c3ac	-0.23805112
3	0xbeabe03c	-0.33569515
4	0xbe91d23d	-0.28480712
5	0x3e8937b8	0.26800323
6	0x3e87794c	0.2645973
7	0x3eb2a633	0.34892425
8	0x3e321140	0.17389393
9	0xbde4b70e	-0.111677274
10	0xbe086281	-0.13318826
11	0x3e1484ad	0.14503737
12	0x3ecfbdf3	0.40574607
13	0x3e0510bd	0.12994666
14	0xbe667dd1	-0.22508933
15	0xbe6ba434	-0.23011857
16	0xbef185c7	-0.47172377
17	0x3dcffaa1	0.101552255
18	0xbe8e1586	-0.27750796
19	0xbee1f1f8	-0.4412992
20	0x3ed40474	0.41409647
21	0xbea7fcd1	-0.3281007
22	0xbd6edeb1	-0.058317844
23	0x3e0eb84f	0.13937496
24	0x3c6d61cf	0.014488651
25	0xbeade2ac	-0.33962
26	0xbed9e5e1	-0.42558196
27	0x3eccfbb7	0.40035793
28	0x3de9feaf	0.1142553
29	0x3ed616d9	0.41814306
30	0xbe29a415	-0.16566499
31	0x3e1b3f47	0.15160857
32	0xbdcfa3a9	-0.101386376
33	0xbcaf7774	-0.021419264
34	0xbe8f81bb	-0.28028664
35	0x3e1000f0	0.14062858
36	0x3e4b1519	0.19832267
37	0xbbd089b0	-0.00636407
38	0xbdc6a931	-0.097002394
39	0xbe975ded	-0.29563847
40	0x3eb0aa3d	0.34504882
41	0xbea76970	-0.3269763
42	0x3e5b7b5e	0.2143378
43	0xbe21bad6	-0.15793929
44	0xbe757684	-0.23970991
45	0x3dadab5f	0.08479952
46	0xbe845b98	-0.2585113
47	0x3e1de67f	0.15419959
48	0x3dda97d4	0.1067349
49	0xbebdafbe	-0.37048143
50	0x3da0029e	0.07812999
51	0x3e5d92e7	0.2163807
52	0x3e494ff1	0.19659401
53	0xbd603672	-0.054739423
54	0xbed63b80	-0.4184227
55	0xbd87f78a	-0.06639011
56	0x3e31c257	0.17359291
57	0xbe3a38fd	-0.18185802
58	0x3e356792	0.1771529
59	0x3eaaa1eb	0.3332666
60	0xbe78f850	-0.24313474
61	0x3b06f282	0.0020591323
62	0x3e4f49b7	0.20242964
63	0x3d4eb9f3	0.050470304

fluid_net.net.1.weight f4 [64, 64]
0	0x3c813838	0.015773878
1	0x3d1dde32	0.03854198
2	0xbdc97e00	-0.09838486
3	0x3d3323e9	0.04373542
4	0x3da432d6	0.08017509
5	0x3db67400	0.08908844
6	0x3d982655	0.07429186
7	0x3d04afd2	0.032394238
8	0x3dbfdefd	0.093687035
9	0xbceafdc2	-0.028685454
10	0xbdbd3376	-0.09238331
11	0xbdbc3438	-0.091896474
12	0x3e04ad43	0.12956719
13	0x3d80c64b	0.062878214
14	0xbd855452	-0.065102234
15	0x3d220c18	0.039562315
16	0x3dafb671	0.0857972
17	0x3dd5776a	0.10423167
18	0x3dfa47ba	0.12220712
19	0x3dfbc95a	0.12294264
20	0xbc8bf6df	-0.01708549
21	0xbd407b38	-0.04699251
22	0x3dce67d2	0.10078396
23	0x3d36e1a1	0.04464877
24	0xbdc28ba3	-0.0949929
25	0x3dcbeb67	0.09957009
26	0x3dbc8fba	0.09207101
27	0x3d14773e	0.03624653
28	0xbd3faae2	-0.046793826
29	0x3d23d52f	0.03999823
30	0xbd630f57	-0.05543455
31	0x3e0041f5	0.1252516
32	0x39dd65ec	0.00042228342
33	0x3d9407fb	0.07228085
34	0x3d339484	0.043842807
35	0x3c8f08b9	0.017460214
36	0xbcc22868	-0.023700908
37	0x3dc70443	0.0971761
38	0xbd65cbfc	-0.056102738
39	0x3c9eb4ee	0.019373383
40	0xbde70f36	-0.11282198
41	0xbdf5236d	-0.119696476
42	0xbda69c76	-0.08135311
43	0x3da1c42a	0.078987435
44	0x3db11632	0.086468115
45	0x3df50785	0.11964325
46	0x3db7ba71	0.08971108
47	0xbdb0a85c	-0.08625862
48	0xbd7e3b5a	-0.06206832
49	0xbb809a0b	-0.0039246134
50	0xbdbd4605	-0.09241871
51	0x3db3b5ef	0.087749355
52	0xbe003da2	-0.12523511
53	0xbd8378e4	-0.064195424
54	0xbdba0359	-0.0908267
55	0xbd8ed081	-0.06973363
56	0x3df3c9e1	0.1190374
57	0x3e07decf	0.13268588
58	0x3d73c931	0.059518043
59	0x3d85c9ff	0.06532668
60	0x3dd55053	0.10415711
61	0xbd1a2b77	-0.037639108
62	0x3ce8f69d	0.028437907
63	0x3da82233	0.08209648
64	0x3d96a8e4	0.07356432
65	0x3e14e725	0.145413
66	0x3db73bf9	0.08946986
67	0x3dd8582d	0.10563693
68	0xbc4edf5f	-0.012626498
69	0x3d2aab77	0.041667428
70	0xbc86f3a3	-0.016473597
71	0xbcafe492	-0.021471296
72	0xbd42d6f6	-0.047568284
73	0xbd1b358d	-0.037892867
74	0xbe00c068	-0.12573397
75	0x3d890a21	0.06691385
76	0x3d708358	0.05871901
77	0xbd281691	-0.041037146
78	0xbd2f834b	-0.04284982
79	0x3e00b3df	0.12568615
80	0x3dbabf8e	0.091185674
81	0xbc81d367	-0.015847875
82	0xbd4db947	-0.050225522
83	0x3e0e0a9d	0.13871236
84	0x3cc10174	0.023560263
85	0xbda88df1	-0.08230198
86	0x3dbc342e	0.0918964
87	0x3d88c89c	0.06678888
88	0xbcf88f6f	-0.030341832
89	0x3dc301a5	0.09521798
90	0xbd2bc11e	-0.041932218
91	0x3bd5e3a8	0.006527383
92	0x3e0468c2	0.12930587
93	0xbc18cc04	-0.009325985
94	0xbd734e00	-0.05940056
95	0xbca80ac6	-0.02051295
96	0xbc7d3a15	-0.015455742
97	0xbca9d785	-0.02073265
98	0xbc9cd259	-0.01914327
99	0x3dadd201	0.08487321
100	0xbb394634	-0.0028270604
101	0xbd4511e3	-0.04811276
102	0x3c5b0b40	0.013369381
103	0x3d9ebde3	0.07751062
104	0x3d9036fc	0.070417374
105	0xbdbeb4b3	-0.093118094
106	0xbd1a2a44	-0.037637964
107	0xbdaf88ed	-0.085710384
108	0xbd8913f1	-0.06693257
109	0x3c875d65	0.016524026
110	0xbd73e455	-0.059543926
111	0x3d60b0fc	0.054856285
112	0x3e070746	0.13186368
113	0x3d0fb70d	0.03508668
114	0xbd67c131	-0.056580726
115	0xbc959cc0	-0.01826322
116	0x3ca35e8a	0.01994254
117	0xbe004e0a	-0.1252977
118	0x3dbbd326	0.09171133
119	0xbd8fdc73	-0.07024469
120	0xbdbba896	-0.091630146
121	0xbdecdb15	-0.11565224
122	0xbd58ff8a	-0.052978076
123	0x3d514f3c	0.051100954
124	0xbdb25804	-0.08708194
125	0x3d92c2bf	0.07166051
126	0xbcd28adf	-0.025700985
127	0x3c4eeb0d	0.012629283
128	0x3bbb7f9b	0.005721999
129	0xbdec1bc7	-0.115287356
130	0x3dd41f87	0.10357576
131	0x3d8db2ee	0.06918894
132	0x3df45f27	0.11932211
133	0x3d75d4eb	0.060017508
134	0xbda48bc3	-0.0803447
135	0x3dd047ce	0.10169946
136	0x3be06336	0.0068477644
137	0x3d7f38e5	0.06231012
138	0xbdc51301	-0.09622765
139	0xbcdc3a5c	-0.026883297
140	0xbdfb6896	-0.122758076
141	0xbd48d8ae	-0.049034767
142	0x3cd80066	0.026367377
143	0xbde587b6	-0.112075254
144	0x3d264d3a	0.040600993
145	0x3d8030f0	0.06259334
146	0x3cceb982	0.025234941
147	0xbda73576	-0.08164494
148	0xbdc6665c	-0.09687492
149	0xbd1b611a	-0.0379344
150	0x3d8772f5	0.06613723
151	0x3df2ff55	0.11865107
152	0x3d832179	0.06402869
153	0xbcdcfbc6	-0.026975524
154	0x3d389b10	0.045069754
155	0xbe0193bd	-0.12654014
156	0xbdc5a2ec	-0.096502155
157	0x3d6b5e3d	0.05746292
158	0xbdb1b027	-0.086761765
159	0x3d810a9f	0.06300854
160	0xbdafe2c9	-0.08588178
161	0xbd628359	-0.055301044
162	0xbdcc2151	-0.09967292
163	0x3d83c1a6	0.0643342
164	0xbbaef677	-0.0053394395
165	0x3dc5f8c2	0.096665874
166	0x3daccbec	0.084373325
167	0x3d90b582	0.0706587
168	0xba3d05f4	-0.0007210665
169	0xbd1abd1a	-0.037777998
170	0xbc83fef1	-0.016112776
171	0x3c03c4e9	0.0080425525
172	0x3d88fd94	0.06688991
173	0xbdaaacc7	-0.08333736
174	0x3dc1f52c	0.09470591
175	0xbbaa7bee	-0.005202762
176	0xbdd6e8a9	-0.10493595
177	0xbd882544	-0.06647733
178	0x3dd2db5b	0.10295745
179	0x3ddd4ec8	0.10806042
180	0xbdf3da5f	-0.11906885
181	0x3db6fa0a	0.0893441
182	0x3d86f1f6	0.06589119
183	0x3db4e4ae	0.0883268
184	0x3dd44809	0.10365302
185	0xbd8362f2	-0.06415357
186	0x3d1eca5f	0.038767215
187	0x3d45d069	0.04829446
188	0xbd32b597	-0.04363021
189	0x3d342e7e	0.04398965
190	0xbd2caa2f	-0.042154487
191	0x3d9431ac	0.07236037
192	0xbd0f0471	-0.034916345
193	0xbd2e9319	-0.042620752
194	0x3d002d17	0.031293
195	0x3d3619ff	0.044458386
196	0xbd801d81	-0.062556274
197	0x3c3ea018	0.011634849
198	0x3d97c4a4	0.07410553
199	0xbc42bc7f	-0.011885761
200	0x3d0fd254	0.035112694
201	0xbcef0fa2	-0.029182259
202	0x3d2deb8d	0.042460967
203	0xbdba093a	-0.09083791
204	0xbd937aff	-0.07201194
205	0xbd807369	-0.06272013
206	0x3de80a9c	0.113301486
207	0xbd16f656	-0.036856018
208	0xb9ed5be8	-0.00045272638
209	0xbd748554	-0.059697464
210	0x3e016cc5	0.12639149
211	0x3dfa06ae	0.12208305
212	0xbdb914b1	-0.0903715
213	0xbdd28082	-0.10278417
214	0xbdc53f7c	-0.09631249
215	0xb9e75512	-0.00044123136
216	0xbd037f68	-0.032103926
217	0xbda856eb	-0.08219703
218	0xbd355184	-0.044267192
219	0x3cbd1cf9	0.023085104
220	0xbd819dbe	-0.06328915
221	0x3cec2886	0.028827917
222	0xbd1dc6f5	-0.03851982
223	0xbd753902	-0.05986882
224	0x3c851e8a	0.016249914
225	0x3dd2fe32	0.1030239
226	0xbdac8c2c	-0.08425173
227	0x3ba4dadc	0.005030973
228	0xbd3c0b87	-0.04590943
229	0x3df97541	0.121805675
230	0xbdeef0d6	-0.116670296
231	0xbdfe21a0	-0.12408757
232	0x3df94e5d	0.1217315
233	0xbda3b066	-0.0799263
234	0x3ccca285	0.02497984
235	0xbc32ba21	-0.010908634
236	0xbcd1c532	-0.025606725
237	0xbcd19065	-0.025581548
238	0x3d9dbfa0	0.07702565
239	0x3bf983cc	0.0076145884
240	0xbdf895a9	-0.121379204
241	0xbd965b30	-0.073416114
242	0xbd342312	-0.04397876
243	0x3d86d67b	0.06583878
244	0xbda4a5cd	-0.080394365
245	0x3dd0718e	0.10177909
246	0xbce50799	-0.027957724
247	0xbca86cbc	-0.020559661
248	0x3dcf2d32	0.10116042
249	0x3d8044ab	0.062630974
250	0x3ddb1be4	0.10698679
251	0x3d925cfe	0.07146643
252	0xbd1bbe63	-0.038023364
253	0xbdac0bf2	-0.08400716
254	0xbc3790e8	-0.011203982
255	0x3dd2bc84	0.10289863

fluid_net.net.1.bias f4 [64]
0	0x3dbf44a2	0.093392625
1	0x3dd65555	0.104654945
2	0xbd169955	-0.036767323
3	0xbd93f79b	-0.07224961
4	0xbd913622	-0.07090403
5	0xbd9dd3fb	-0.07706448
6	0xbcbeb478	-0.023279414
7	0xbde8e4b6	-0.11371748
8	0x3d8da42e	0.069160804
9	0xbdf29703	-0.118452094
10	0xbd9c0ba6	-0.07619409
11	0x3dac7800	0.08421326
12	0xbdc79df9	-0.09746928
13	0x3ca9ff87	0.020751728
14	0x3dbcde4b	0.092220865
15	0x3e02dd8f	0.1277983
16	0x3d730faa	0.05934111
17	0xbd0e66fb	-0.03476618
18	0x3d8a95d0	0.06766856
19	0xba89b35b	-0.0010505723
20	0xbd1a1ac9	-0.0376232
21	0xba8459cc	-0.0010097562
22	0x3ce48643	0.027896052
23	0x3da74cd7	0.08168953
24	0x3d6e6a64	0.05820693
25	0x3d695a70	0.056971014
26	0x3c8c7a8f	0.017148284
27	0x3ab01338	0.0013433462
28	0x3d5fa6b5	0.054602344
29	0x3d020d0a	0.031750716
30	0xbe0424e3	-0.12904696
31	0x3cbf2e64	0.02333755
32	0xbd6da485	-0.058018226
33	0xbdb57169	-0.08859522
34	0x3d44cda1	0.048047666
35	0x3d10aa5e	0.035318725
36	0x3c78740a	0.015164385
37	0xbd7d7482	-0.06187869
38	0x3d50911a	0.05091963
39	0x3def188b	0.11674603
40	0x3d22b19f	0.039720174
41	0x3d4d8b58	0.050181717
42	0xbde74c69	-0.11293871
43	0x3da6c1a9	0.081424065
44	0x3d2f602e	0.042816333
45	0x3d7adca4	0.061245576
46	0x3d628243	0.05530001
47	0xbd056212	-0.03256423
48	0xbc607a30	-0.013701007
49	0x3e0816b1	0.13289906
50	0x3dcb2eab	0.099210106
51	0xbd9c1260	-0.07620692
52	0x3e0cf8f3	0.13766842
53	0x3dfed970	0.12443817
54	0x3c828858	0.015934154
55	0xbdb811e7	-0.089877896
56	0x3cd9a774	0.026569106
57	0xbcc50321	-0.024049344
58	0x3dbc73c8	0.09201771
59	0xbdef85e7	-0.11695462
60	0x3cff2a03	0.031147962
61	0xbc02f67b	-0.007993336
62	0x3c576ef6	0.013149014
63	0x3db2b44e	0.08725797

fluid_net.net.2.weight f4 [64, 64]
0	0x3b074426	0.0020639985
1	0xbdd1dcca	-0.1024719
2	0xbd7d3338	-0.061816424
3	0xbdbb587a	-0.09147735
4	0x3ca6026c	0.020264827
5	0x3d47d6f0	0.048788965
6	0xbcbcb7c5	-0.023036847
7	0xbd0b23e1	-0.033969764
8	0x3d6f795f	0.058465358
9	0xbdf56be7	-0.11983471
10	0x3db518f1	0.08842648
11	0xbcd86465	-0.02641506
12	0x3db5df0f	0.08880436
13	0x3db2f6e1	0.08738495
14	0x3b58e3f9	0.0033094867
15	0x3d14ce57	0.036329594
16	0xbd9fb64d	-0.07798443
17	0x3dbe271e	0.09284805
18	0x3d90e1d9	0.07074327
19	0xbce2add9	-0.027670788
20	0x3d762e0d	0.06010251
21	0xbc490ae3	-0.012270662
22	0x3db42d95	0.087977566
23	0x3d5a990f	0.053368624
24	0x3db4e3fe	0.088325486
25	0xbdcb36d0	-0.09922564
26	0x3decfa47	0.11571174
27	0x3d78850a	0.06067375
28	0x3d756efa	0.05992029
29	0x3cd1b87c	0.025600664
30	0x3da1153b	0.078653775
31	0x3de4d4b6	0.11173384
32	0xbcad8aed	-0.021184409
33	0xbdd1fa77	-0.102528505
34	0x3dd54647	0.10413795
35	0xbce78f9e	-0.028266724
36	0xbd7fdddb	-0.062467437
37	0x3da21d92	0.07915796
38	0x3d915fbc	0.07098338
39	0x3c786cc0	0.015162647
40	0xbbcf7ca3	-0.0063319965
41	0xbd178766	-0.03699436
42	0x3dfb89e7	0.12282162
43	0x3d9fa18d	0.07794485
44	0x3da443e2	0.0802076
45	0x3da46a17	0.080280475
46	0xbd79858c	-0.060918376
47	0x3cd24cf2	0.025671456
48	0xbde36068	-0.111023724
49	0x3d8ec975	0.06972019
50	0xbdfdfc7e	-0.12401675
51	0xbe043266	-0.1290985
52	0xbdf94290	-0.12170899
53	0x3da4f2d1	0.08054126
54	0x3c70fd58	0.014708839
55	0x3bfeb994	0.0077735875
56	0x3c452e4d	0.012034965
57	0xbd2e23fc	-0.042514786
58	0xbd30f004	-0.043197647
59	0xbdae89d9	-0.08522386
60	0xbcff6deb	-0.031180343
61	0xbd9d42bc	-0.07678744
62	0xbaed7a1f	-0.001811806
63	0x3dd402ce	0.103520975
64	0xbdd2154f	-0.102579705
65	0x3d78c2ab	0.060732525
66	0xbdb01d5c	-0.0859935
67	0xbd9a0b06	-0.07521634
68	0x3ce83274	0.02834437
69	0x3cc1d82b	0.023662647
70	0x3dcfdcb2	0.10149516
71	0x3c99b8d0	0.018764883
72	0xbd3aa903	-0.04557134
73	0xbd5a0539	-0.053227637
74	0x3bd96c2b	0.006635209
75	0xbddad510	-0.1068517
76	0xbdc35cd7	-0.09539192
77	0xbd759fe3	-0.059966933
78	0xbc0bc582	-0.008530976
79	0xbdb0644b	-0.08612879
80	0xbd9ca611	-0.07648862
81	0x3dbe5d18	0.092951
82	0x3dea43fa	0.11438747
83	0xbd31f169	-0.043443117
84	0xbdca0551	-0.09864295
85	0xbd501d0a	-0.050808944
86	0x3d2e9656	0.04262384
87	0x3d34b472	0.0441174
88	0xbd22e286	-0.03976681
89	0xbdcd4745	-0.10023359
90	0xbd2e8a6b	-0.042612474
91	0xbc8f0546	-0.01745857
92	0x3d8e2405	0.06940464
93	0xbd809be2	-0.06279732
94	0x3d956426	0.072944924
95	0x3c5b78f7	0.0133955395
96	0xbcf64ee7	-0.03006692
97	0xbde74dbc	-0.112941235
98	0x3de8652e	0.113474235
99	0xbcbaabff	-0.022787092
100	0x3d9dccaf	0.07705056
101	0xbd7b30a5	-0.061325688
102	0xbdf4ab1b	-0.11946698
103	0xbdcc92bd	-0.099889256
104	0xbd7aba1e	-0.06121265
105	0xbd4944bb	-0.049137812
106	0xbc604435	-0.013688137
107	0x3ddb42fd	0.107061364
108	0xbddb20d6	-0.10699622
109	0x3d806ce7	0.062707715
110	0x3de1f541	0.110331066
111	0xba8b71ca	-0.001063877
112	0xbda3ee36	-0.080044195
113	0x3b30e67f	0.0026992855
114	0x3d008d1f	0.031384584
115	0x3d590e81	0.052992348
116	0xbd0c40b8	-0.034241408
117	0xbd28b37f	-0.041186806
118	0xbd62c04d	-0.055359174
119	0xbdeaa86d	-0.11457906
120	0x3d178b70	0.036998212
121	0xbdba90c4	-0.09109643
122	0xbd776294	-0.060396746
123	0xbb416f52	-0.0029515815
124	0x3dc49470	0.09598625
125	0x3ddba95f	0.10725664
126	0xbdc1e356	-0.09467189
127	0x3defd74e	0.11710988
128	0x3de5f0f5	0.112275995
129	0x3dcce928	0.100054085
130	0x3c6983c5	0.014252608
131	0x3da02e81	0.0782137
132	0x3d7eb22c	0.062181637
133	0xbdb42286	-0.08795647
134	0xbd8a295b	-0.06746169
135	0x3befb1f4	0.007314915
136	0xbdaff76e	-0.08592115
137	0xbd375d50	-0.044766724
138	0x3dd47b01	0.10375024
139	0x3d172dcb	0.036908906
140	0x3de274f4	0.11057463
141	0xbbac83f7	-0.005264755
142	0xbd982b2a	-0.07430108
143	0x3da4c25b	0.08044883
144	0x3b2ed09b	0.0026674632
145	0x3cc2db47	0.0237862
146	0xbd5c0269	-0.053713236
147	0x3d4890c5	0.048966188
148	0xbdaaf344	-0.083471805
149	0x3dcc53bd	0.09976909
150	0x3dcea07c	0.10089204
151	0x3d4617f7	0.0483627
152	0x3dc46025	0.095886506
153	0x3da685f8	0.08131021
154	0xbd5988b1	-0.053108875
155	0xbdcfed76	-0.10152714
156	0x3c652e31	0.013988064
157	0x3da01987	0.07817369
158	0xbc721db8	-0.014777593
159	0x3bfc412e	0.0076981997
160	0x3dab1630	0.08353841
161	0x3d4f5b72	0.05062432
162	0x3da9375d	0.08262513
163	0x3c8eb78a	0.017421503
164	0x3c466d3e	0.012111006
165	0xbcbefbde	-0.023313459
166	0xbca11a11	-0.01966575
167	0xbd891484	-0.06693366
168	0x3dafc9a2	0.0858338
169	0x3dd3b308	0.10336882
170	0x3d46191e	0.048363797
171	0x3bbd7ced	0.0057827146
172	0xbcf6fbe1	-0.030149402
173	0xbdfaf087	-0.12252908
174	0xbc9c4ab8	-0.019078597
175	0xbdb9076f	-0.09034621
176	0xbdc31a22	-0.09526469
177	0xbcd929e7	-0.026509238
178	0xbcbe9bc9	-0.023267644
179	0x3cb6a3f7	0.022294981
180	0xbdb26d2b	-0.087122284
181	0x3dbc7a3f	0.09203004
182	0xbde128d3	-0.10994115
183	0xbd569c32	-0.052395053
184	0xbd60da02	-0.05489541
185	0x3c3daf13	0.0115773855
186	0x3d5e9bc7	0.05434778
187	0xbd0e999e	-0.03481447
188	0x3c9a8e3d	0.018866653
189	0xbd0939bc	-0.033502325
190	0xbd51df4c	-0.051238343
191	0xbbee2fa0	-0.007268861
192	0x3cd7400d	0.026275659
193	0xbdf272b3	-0.118382834
194	0xbdb3e1e1	-0.08783317
195	0x3e0a9aab	0.13535564
196	0x3d6cf916	0.057854734
197	0xbb31de4e	-0.002714056
198	0x3b533652	0.0032228422
199	0x3c89bb8a	0.016813058
200	0x3cc953bc	0.02457606
201	0xbd9c1a0e	-0.07622157
202	0xbd16a854	-0.036781624
203	0xbde204ba	-0.11036058
204	0xbdc83e6a	-0.097775295
205	0xbc926114	-0.017868556
206	0xbc158210	-0.009125248
207	0x3dd209fb	0.1025581
208	0x3cfe0339	0.031007396
209	0xbcaf3c35	-0.021391014
210	0x3a17d6fc	0.0005792228
211	0x3d945660	0.07243037
212	0xbd3f9da4	-0.046781197
213	0xbccf52fc	-0.025308125
214	0x3cd943b6	0.026521545
215	0xbdcf5f94	-0.10125652
216	0xbc54a854	-0.012979586
217	0xbdf35b3b	-0.11882635
218	0xbd78c093	-0.060730528
219	0xbda6425e	-0.08118127
220	0x3dbe8229	0.0930217
221	0xbdefe250	-0.117130876
222	0x3df76bde	0.12081121
223	0x3d4cbac5	0.049982805
224	0xbd9d3b08	-0.07677275
225	0x3dd19e1a	0.102352336
226	0xbc5c7b8d	-0.013457191
227	0xbdd2fbfc	-0.103019685
228	0xbc5ffc7b	-0.013671036
229	0x3d45e8e8	0.04831782
230	0xbdf76922	-0.12080599
231	0xbbfb87c5	-0.007676097
232	0x3d46950e	0.048481993
233	0xbcc4a00f	-0.024002103
234	0x3c674bf5	0.014117231
235	0xbd60b866	-0.054863356
236	0xbdbbb1a4	-0.09164742
237	0x3dc4b582	0.09604932
238	0xbdbb18dd	-0.09135602
239	0xbb0d930a	-0.0021602535
240	0x3d3c95d9	0.046041343
241	0xbd8628d9	-0.0655076
242	0x3d7aabc9	0.061198983
243	0xbdc884f6	-0.09790985
244	0x3def8906	0.11696057
245	0x3d4ca457	0.049961414
246	0xbca20ef7	-0.019782526
247	0xbde9ac1c	-0.114097804
248	0x3c404fc4	0.011737768
249	0x3d1d3baf	0.038386997
250	0xbd8f12ca	-0.069860056
251	0xbc3e6fa9	-0.011623302
252	0xbdf90e61	-0.12160946
253	0xbdfc66ff	-0.123243324
254	0xbc5aed44	-0.013362233
255	0x3dba20cb	0.09088286

fluid_net.net.2.bias f4 [64]
0	0xbcb3df09	-0.021956937
1	0x3e007ebf	0.1254835
2	0xbd812626	-0.06306104
3	0xbde9d2c1	-0.11417151
4	0x3d08e1d7	0.033418503
5	0x3de5f55d	0.1122844
6	0x3c5764dc	0.013146605
7	0xbd158403	-0.03650285
8	0xbdd8b694	-0.10581699
9	0x3da825b6	0.08210318
10	0xbe1bdeda	-0.1522173
11	0xbd5dea9e	-0.054178827
12	0x3d90ccfd	0.070703484
13	0xbd911324	-0.07083729
14	0xbdaf6fcf	-0.08566248
15	0xbda112e9	-0.07864935
16	0x3d73bf51	0.059508625
17	0xbd60c273	-0.05487294
18	0xbce24275	-0.02761958
19	0xbd0b766d	-0.034048487
20	0x3d868742	0.06568767
21	0x3dd820cc	0.105531305
22	0x3c05659f	0.008141904
23	0xb9b793ef	-0.000350147
24	0xbc5a6cf6	-0.013331642
25	0x3d70f572	0.058827825
26	0x3dd07d9c	0.10180208
27	0x3d0cc0b9	0.034363482
28	0x3dd40cd9	0.10354013
29	0xbd27dc4b	-0.040981572
30	0x3bd2f3bb	0.0064377463
31	0xbde0451e	-0.10950683
32	0x3d2d1b52	0.042262383
33	0xbd83080c	-0.06398019
34	0xbc9567ea	-0.018238027
35	0xbdff9631	-0.124798186
36	0x3c314065	0.0108185755
37	0x3d257127	0.040391114
38	0x3d9a4f30	0.07534635
39	0xbcdef06d	-0.027214253
40	0x3daed861	0.08537365
41	0x3dfbe7fa	0.123001054
42	0x3d262a92	0.040567942
43	0x3dbacd37	0.09121173
44	0x3dfa8f28	0.12234336
45	0x3dd738cc	0.1050888
46	0x3d64916a	0.05580274
47	0x3da41c36	0.08013193
48	0x3dede4ec	0.11615929
49	0xbd238935	-0.039925773
50	0x3dcf1b06	0.10112576
51	0xbd4a6232	-0.049410053
52	0xbd20c3c3	-0.039249193
53	0x3d8041c7	0.06262546
54	0xbd9527ea	-0.07283004
55	0xbd4823ce	-0.04886227
56	0x3bff686b	0.00779443
57	0x3c8e9caf	0.017408697
58	0x3a8ce005	0.0010747915
59	0xbca8de53	-0.020613825
60	0x3d2799af	0.04091805
61	0x3df93a65	0.12169341
62	0xbd5cc889	-0.053902183
63	0x3d8af765	0.06785468

fluid_net.net.3.weight f4 [1, 64]
0	0x3d002de3	0.03129376
1	0x3d907075	0.070526995
2	0x3dc8572c	0.09782252
3	0xbc3a552b	-0.011372845
4	0xbcb7ab4f	-0.022420553
5	0xbd3749bb	-0.04474805
6	0xbce37054	-0.027763523
7	0xbd5b85bd	-0.05359434
8	0xbced40ae	-0.028961506
9	0x3d939d1f	0.07207703
10	0x3cff8aff	0.031194208
11	0xbd508dec	-0.050916597
12	0x3d8f497a	0.069964364
13	0x3c334283	0.010941151
14	0x3b549aef	0.003244098
15	0x3d1f698e	0.038919024
16	0xbd69f92c	-0.057122394
17	0xbc4cd493	-0.0125018535
18	0x3dbec4bd	0.093148686
19	0x3d9b5f9d	0.07586596
20	0x3d8dbff7	0.0692138
21	0xbca04918	-0.019566104
22	0x3c5b28ab	0.013376395
23	0x3d9d2c98	0.07674521
24	0x3c87afc2	0.0165633
25	0x3d8257f8	0.06364435
26	0x3d72fe20	0.059324384
27	0x3d5067fc	0.050880417
28	0x3d57770f	0.052603777
29	0xbda10a57	-0.078633
30	0xbddb31d7	-0.107028656
31	0xbdb78da5	-0.089625634
32	0x3dbcbda6	0.0921586
33	0xbd8d9c87	-0.06914621
34	0xbdc58f3f	-0.09646463
35	0x3bf98edb	0.0076159067
36	0xbca1324f	-0.01967731
37	0x3d1f8246	0.038942598
38	0xbcf2fcbe	-0.029661532
39	0x3db84580	0.08997631
40	0xbdb3897c	-0.087664574
41	0xbddb4656	-0.10706775
42	0x3dc428fd	0.095781304
43	0xbd468b34	-0.0484726
44	0x3c36e153	0.01116212
45	0x3d2607e5	0.040534873
46	0x3bd24a2e	0.0064175343
47	0xbd9dc336	-0.07703249
48	0x3c1bfc83	0.009520653
49	0xbd9bf9a7	-0.07615977
50	0x3dc4c7a2	0.096083894
51	0x3c96124a	0.018319268
52	0x3da135ad	0.07871566
53	0x3daa51e1	0.083163984
54	0x3d145cdf	0.03622138
55	0x3d226a86	0.03965237
56	0x3d84e0bc	0.06488177
57	0xbd9e44e6	-0.07727985
58	0x3d8b726a	0.06808932
59	0xbc9baf99	-0.01900463
60	0x3dbca16d	0.09210477
61	0xbbad9f67	-0.0052985433
62	0x3d2daa9f	0.042399045
63	0x3da7560c	0.08170709

struct_net.net.0.weight f4 [64, 4]
0	0xbdc7b41b	-0.09751149
1	0x3e3f89b1	0.18704869
2	0xbef9045d	-0.4863614
3	0xbd8c5202	-0.06851579
4	0xbdc62b49	-0.09676225
5	0xbec1b78d	-0.3783535
6	0xbce08bbb	-0.027410379
7	0x3dd9995d	0.10624955
8	0xbef2f674	-0.47453654
9	0x3ecabbdf	0.3959646
10	0x3e8e2b11	0.27767232
11	0x3efa34a8	0.488683
12	0xbe5e6501	-0.21718217
13	0xbea94756	-0.33062238
14	0x3e973c76	0.29538316
15	0x3eecf9e7	0.4628441
16	0xbe93dcb2	-0.28879315
17	0xbe9410a2	-0.2891894
18	0xbd2e1cb6	-0.04250785
19	0x3ece3568	0.4027512
20	0xbd9a06b4	-0.0752081
21	0xbef2df29	-0.47435883
22	0xbe5618f2	-0.20907953
23	0xbe9155ff	-0.28385922
24	0x3ebda2fb	0.37038407
25	0xbeb855fe	-0.36003107
26	0x3ebd7a7b	0.37007508
27	0x3e4318fe	0.19052503
28	0xbd366003	-0.044525158
29	0xbe019427	-0.12654172
30	0x3e8c4be0	0.27401638
31	0xbe90628b	-0.28200182
32	0xbe4547ad	-0.19265623
33	0x3edfe3ce	0.4372849
34	0xbe397830	-0.18112254
35	0x3d461191	0.048356596
36	0x3ec6c276	0.38820237
37	0xbec6a115	-0.3879477
38	0x3d9fdbbc	0.07805583
39	0x3dbaa3eb	0.09113296
40	0xbe82ca50	-0.25544977
41	0x3ece7499	0.40323332
42	0x3ea9100f	0.33020064
43	0xbd8492e3	-0.06473329
44	0xbd4688b7	-0.048470225
45	0x3e9cb54a	0.30607063
46	0xbe238cf5	-0.1597174
47	0x3e977327	0.29580042
48	0xbea2b2d7	-0.3177707
49	0xbed058cb	-0.40692744
50	0x3ea966f9	0.33086374
51	0x3eb0c51b	0.3452538
52	0xbec4983b	-0.38397393
53	0xbde2c4f1	-0.1107272
54	0x3e590b8c	0.21195811
55	0x3e913883	0.28363428
56	0x3e95f556	0.2928874
57	0x3eb19af3	0.3468853
58	0xbe67d8d5	-0.22641309
59	0x3dc8ee39	0.09811062
60	0x3ed9f147	0.42566893
61	0xbecfeff8	-0.4061277
62	0x3ea3a053	0.31958255
63	0x3deba3c9	0.11505849
64	0x3c8195fb	0.015818587
65	0x3efa60e0	0.48902035
66	0xbe51788d	-0.20456143
67	0xbe0e253f	-0.13881396
68	0xbebb9b68	-0.36642003
69	0x3ed1f203	0.41004953
70	0xbeb8e2eb	-0.36110625
71	0x3ee0ea0f	0.43928573
72	0xbeb92254	-0.36159003
73	0x3e897a2c	0.26851022
74	0xbe74b6a9	-0.23897804
75	0x3edc2e49	0.43004063
76	0xbea8d6d8	-0.32976413
77	0xbea30122	-0.31836802
78	0xbe08840e	-0.13331625
79	0xbecfee78	-0.40611625
80	0x3eefd5ef	0.46842906
81	0x3e3829a2	0.17984632
82	0xbe876443	-0.2644368
83	0xbec29b07	-0.380089
84	0xbe265e69	-0.16246952
85	0x3d875d16	0.066095516
86	0xbe5cede4	-0.21575123
87	0x3e94aff9	0.29040506
88	0xbe7fcba2	-0.24980024
89	0x3e18dce3	0.14928012
90	0x3eb66840	0.3562641
91	0xbebde020	-0.37085056
92	0xbec16f20	-0.37780094
93	0xbeee6568	-0.46561742
94	0x3dabe751	0.083937295
95	0x3ecc572e	0.39910263
96	0xbe9cbedb	-0.3061436
97	0xbd766375	-0.060153443
98	0x3e9e024e	0.30861133
99	0x3ec79f2e	0.38988632
100	0x3e87b45d	0.26504794
101	0x3e272fbf	0.16326807
102	0x3da894fb	0.08231541
103	0xbadaeebc	-0.0016703228
104	0x3ede965b	0.43474087
105	0x3c83b0a6	0.016075443
106	0x3e456db0	0.19280124
107	0xbcd1889d	-0.025577838
108	0x3ec86f43	0.39147386
109	0xbefc5639	-0.49284533
110	0xbe2baafa	-0.16764441
111	0xbef5d0e5	-0.48010936
112	0x3de3f376	0.11130421
113	0xbdec6ec0	-0.115445614
114	0xbecaf977	-0.39643452
115	0xbeccdf4e	-0.40014118
116	0x3e12d37c	0.14338487
117	0x3ebadb8e	0.36495632
118	0x3ece32d9	0.4027317
119	0x3ea85888	0.32880044
120	0xbecd0ef6	-0.40050477
121	0x3ed2a16a	0.41138774
122	0x3eed4d9b	0.4634827
123	0xba3d71fb	-0.0007226762
124	0xbef13775	-0.47112623
125	0xbeb5550f	-0.35416457
126	0xbedbec30	-0.42953634
127	0x3d629e90	0.055327
128	0x3ed0a9a3	0.40754423
129	0x3e9acfed	0.3023676
130	0xbe72db3f	-0.23716448
131	0xbe55788f	-0.2084677
132	0x3ddf77f1	0.10911549
133	0xbe8758d0	-0.26434946
134	0xbd52409f	-0.05133116
135	0x3dd8f9a9	0.10594494
136	0xbe3af402	-0.18257144
137	0x3e37b48f	0.17939971
138	0xbd9cd1dc	-0.07657215
139	0x3edabd8d	0.4272274
140	0xbed37f23	-0.41307935
141	0x3ed7c6ad	0.42143765
142	0x3ea3c386	0.3198511
143	0xbee8bcf0	-0.45456648
144	0x3de0409b	0.109498225
145	0xbd68f599	-0.056874845
146	0x3e65805b	0.22412245
147	0x3ebbc404	0.36672986
148	0xbe8885e9	-0.26664665
149	0xbe8ec0eb	-0.2788156
150	0xbeb78189	-0.35841015
151	0x3eb9efb2	0.36315686
152	0xbed4de5d	-0.415759
153	0xbe9cda07	-0.30635092
154	0x3ee25ae9	0.44209984
155	0x3e7cf041	0.24701025
156	0x3eacd0ca	0.33753043
157	0x3ed507da	0.41607553
158	0xbedc44bd	-0.43021193
159	0xbe1bdc31	-0.15220715
160	0xbd308239	-0.04309294
161	0x3ee68582	0.45023733
162	0xbe05f1c9	-0.13080515
163	0xbd13808e	-0.03601127
164	0x3e8d134f	0.27553794
165	0x3e84217a	0.2580679
166	0xbeaa9a40	-0.33320808
167	0xbee8ccf7	-0.45468876
168	0xbe3e526c	-0.18586129
169	0x3e1b5c6c	0.15171975
170	0x3ef13477	0.4711034
171	0x3e6b005b	0.22949354
172	0x3e9150c4	0.28381932
173	0x3e1feef6	0.156185
174	0xbe0404e5	-0.12892492
175	0xbda5f760	-0.08103824
176	0x3ed5e5a6	0.4177677
177	0x3dde2773	0.10847368
178	0x3dc4ee19	0.09615726
179	0x3e8cf720	0.2753229
180	0x3eb98ceb	0.36240324
181	0x3e186a2f	0.14884256
182	0xbd3984bd	-0.045292605
183	0xbe3ed18c	-0.18634623
184	0xbe98fa89	-0.29878643
185	0xbe811c5a	-0.25216943
186	0x3ece1ecc	0.4025787
187	0x3ecc9197	0.39954826
188	0xbe848cf4	-0.2588879
189	0x3ed76195	0.42066637
190	0xbe012cac	-0.12614697
191	0xbdf319d3	-0.1187016
192	0x3e21d2df	0.15803097
193	0xbecd86e2	-0.4014197
194	0xbe91a411	-0.28445485
195	0x3c1a9c1e	0.009436635
196	0xbe1e1fd2	-0.15441826
197	0x3e79ce39	0.24395074
198	0xbde43140	-0.11142206
199	0xbed73f39	-0.42040423
200	0xbeddc6ab	-0.43315634
201	0x3ef62f0a	0.48082763
202	0x3e681aee	0.22666523
203	0xbee61ad0	-0.4494233
204	0xbece7c13	-0.40329036
205	0xbe97b56b	-0.29630598
206	0x3edd5ced	0.4323496
207	0x3e8ffbaf	0.28121707
208	0x3e1a9680	0.15096474
209	0x3e8d46f3	0.27593192
210	0x3dcf8abb	0.101338826
211	0x3eb1dabf	0.34737203
212	0xbec73079	-0.3890417
213	0x3ec6765b	0.38762173
214	0x3e581ed0	0.21105504
215	0x3e810fe8	0.25207448
216	0x3ea3052b	0.3183988
217	0xbde443f4	-0.111457735
218	0xbe7235c1	-0.23653318
219	0xbe08c509	-0.13356413
220	0xbebae056	-0.3649928
221	0x3a93eb1d	0.0011285279
222	0x3e8454cd	0.25845948
223	0x3e093e96	0.13402781
224	0xbcb24df6	-0.02176569
225	0x3e3db8fd	0.18527599
226	0xbee3dfb8	-0.4450662
227	0xbeb875a5	-0.36027256
228	0xbedc6062	-0.43042284
229	0x3ef50cba	0.47861272
230	0xbede8373	-0.43459663
231	0x3e75a365	0.23988111
232	0x3eb5dd08	0.35520196
233	0xbe123066	-0.14276275
234	0xbdb36ee1	-0.08761383
235	0x3ecd6b40	0.40120888
236	0xbed0d174	-0.407848
237	0xbefa3ebf	-0.48875996
238	0xbd9e4a70	-0.077290416
239	0xbdb28a53	-0.087177895
240	0xbe4ccf53	-0.20000963
241	0x3c8c2f07	0.017112268
242	0x3e7edaf2	0.24888209
243	0x3e88551c	0.26627433
244	0x3e14a3f4	0.14515668
245	0x3eb2f4da	0.34952432
246	0xbe6df02f	-0.23236154
247	0x3cfea332	0.031083677
248	0x3e31c750	0.17361188
249	0x3e1f9c35	0.15586932
250	0xbe2f0ee8	-0.1709553
251	0x3ecad445	0.39615074
252	0xbebedd3f	-0.37278172
253	0xbe6de6c6	-0.23232564
254	0xbef08977	-0.46979877
255	0x3d97286e	0.07380758

struct_net.net.0.bias f4 [64]
0	0xbec55ab5	-0.38545766
1	0x3eb6d1c9	0.35706928
2	0xbeaaed3b	-0.33384117
3	0x3e0b548c	0.13606471
4	0x3ee16f6a	0.44030315
5	0x3ee888fd	0.45417014
6	0x3e273ddb	0.1633219
7	0x3e3be6d1	0.18349768
8	0x3db7b2da	0.0896966
9	0x3e9ae45d	0.30252352
10	0xbcff2d80	-0.031149626
11	0xbec08de3	-0.3760825
12	0x3ee13873	0.4398838
13	0xbec31ce2	-0.38107973
14	0x3ef8e5a4	0.48612702
15	0x3ce54262	0.027985755
16	0x3e61d9a6	0.22055683
17	0x3c871ba7	0.016492678
18	0x3e5be159	0.21472682
19	0x3eacf8da	0.3378361
20	0xbef1e8f5	-0.47248045
21	0x3e920068	0.28515935
22	0xbe2ccc81	-0.16874887
23	0xbee7d097	-0.4527633
24	0xbeccfa60	-0.4003477
25	0x3d47b44f	0.04875594
26	0x3ec7615f	0.38941476
27	0xbef206ab	-0.47270712
28	0x3e0f9315	0.14020951
29	0x3e502f2e	0.20330498
30	0xbeebd2de	-0.46059316
31	0x3dd85a86	0.10564141
32	0xbe7b014e	-0.24512216
33	0x3d9ae7f2	0.07563771
34	0xbe3f4b55	-0.1868108
35	0x3ecf5437	0.40493938
36	0xbeec4c6e	-0.4615206
37	0x3e841d71	0.25803712
38	0xbe3e49d8	-0.18582857
39	0x3dfa7153	0.12228646
40	0x3d4a519c	0.049394235
41	0xbeedc36c	-0.46438158
42	0xbe70a1fc	-0.23499292
43	0x3cc7e286	0.024400007
44	0x3c707853	0.014677125
45	0xbe81096b	-0.25202498
46	0x3e933408	0.28750634
47	0xbe70fcde	-0.23533961
48	0xbe80ca43	-0.25154313
49	0x3e5ae9a2	0.21378186
50	0xbd615f2b	-0.0550224
51	0x3e22de5e	0.15905139
52	0x3e9ccd9b	0.30625615
53	0xbe3e4235	-0.18579943
54	0x3e13179a	0.14364472
55	0x3eca2c3d	0.39486876
56	0x3d8a60b0	0.06756723
57	0x3ede53ca	0.434233
58	0x3e5d0667	0.21584474
59	0x3ebb4614	0.36576903
60	0x3ec8b9f3	0.39204368
61	0x3e99ec41	0.3006306
62	0x3e0a48e0	0.13504362
63	0x3e7ee830	0.2489326

struct_net.net.1.weight f4 [64, 64]
0	0x3d9b8561	0.075937994
1	0x3b68b21d	0.0035506554
2	0x3ca3f063	0.020012086
3	0xbd518e90	-0.05116135
4	0xbb53a83f	-0.0032296327
5	0x3d7e0922	0.06202043
6	0xbc0d7521	-0.008633883
7	0xbd59c266	-0.05316391
8	0x3d06b4f8	0.03288743
9	0xbb407920	-0.002936907
10	0x3c0bd8dd	0.008535591
11	0xbccee310	-0.025254756
12	0xbb0bbe12	-0.0021323008
13	0xbd014961	-0.03156412
14	0x3dd9b63d	0.10630462
15	0xbdaeff6d	-0.08544812
16	0xbdc08f95	-0.09402386
17	0xbcb7a673	-0.022418236
18	0x3c4ca8f4	0.012491453
19	0x3daf94fc	0.085733384
20	0x3d0947c8	0.03351572
21	0xba8072b6	-0.0009799812
22	0xbdf8ed88	-0.121546805
23	0xbd769b8a	-0.060206927
24	0x3d00ab8c	0.0314136
25	0xbd1ea1ab	-0.038728397
26	0xbd93e338	-0.07221073
27	0x3ced43b1	0.028962942
28	0x3dc0bb58	0.09410733
29	0x3c4178d9	0.0118085975
30	0x3dc842ee	0.09778391
31	0x3de3e4ed	0.111276485
32	0x3b9324dd	0.0044904784
33	0x3dff41f2	0.1246375
34	0x3d214e4b	0.039381307
35	0x3d246d84	0.040143505
36	0x3d365568	0.044515043
37	0xbddcefb2	-0.10787906
38	0x3d4b7ff4	0.049682572
39	0x3dd9b30d	0.10629854
40	0x3cc8f953	0.02453295
41	0x3c0f18ee	0.008733971
42	0xbcc5a651	-0.024127157
43	0xbdc5c4ee	-0.09656702
44	0x3c8d2981	0.017231705
45	0x3d46e759	0.048560474
46	0x3d0ad3f6	0.033893548
47	0x3de8f091	0.113740094
48	0xbd89efe9	-0.06735212
49	0x3de33d9b	0.11095735
50	0xbce5459b	-0.027987292
51	0xbd1f3348	-0.038867265
52	0xbd7fe684	-0.062475696
53	0xbdabccd5	-0.08388678
54	0x3cf69893	0.03010205
55	0xbce0ec5d	-0.027456457
56	0x3ce864ba	0.028368343
57	0xbde64201	-0.11243058
58	0xbcff48ce	-0.031162646
59	0x3d8b9179	0.06814856
60	0xbd8210d8	-0.06350869
61	0x3deecf81	0.11660672
62	0xbda6bc76	-0.08141415
63	0xbd6da78c	-0.058021113
64	0x3da3b413	0.07993331
65	0x3dd68e83	0.10476401
66	0x3d2a09a0	0.041513085
67	0x3d72a68b	0.05924086
68	0xbdbcd3cd	-0.09220085
69	0x3cfb051a	0.030642081
70	0x3a7c724f	0.00096300704
71	0xbd8340cb	-0.06408843
72	0x3d04cc45	0.03242137
73	0x3d82a397	0.063788585
74	0xbdbc09ce	-0.091815576
75	0xbc7a066f	-0.015260323
76	0x3ce7ae49	0.028281348
77	0x3dda43d1	0.10657466
78	0xbdb70d88	-0.08938128
79	0x3ddbe807	0.10737615
80	0xbb9f42d2	-0.0048602605
81	0x3d07b083	0.03312732
82	0xbdd1cb1c	-0.10243818
83	0xbdee5ac5	-0.11638407
84	0xbd6f4084	-0.058411136
85	0xbb116216	-0.0022183708
86	0x3c0c4a3c	0.008562621
87	0x3dcd5dba	0.100276425
88	0xbd0d6845	-0.034523267
89	0x3dcbbe19	0.099483676
90	0xbdb2547a	-0.08707519
91	0x3d841eb0	0.06451166
92	0xbdc6a4c8	-0.09699398
93	0xbddad6c2	-0.10685493
94	0x3d7258b5	0.05916663
95	0xbdbd1207	-0.09231954
96	0xbd7a12cf	-0.061053094
97	0xbd9d66b1	-0.076856025
98	0xbd153e46	-0.03643634
99	0x3d882cc3	0.066491626
100	0x3d5d1e23	0.05398382
101	0xbdc70131	-0.09717024
102	0xbaa5583b	-0.0012614796
103	0xbdc01a1b	-0.09379979
104	0xbdcc3dbc	-0.099727124
105	0xbce7729c	-0.028252892
106	0xbcc35f84	-0.023849256
107	0x3d96d8bc	0.073655576
108	0x3d8e1e53	0.06939378
109	0x3d281833	0.041038703
110	0x3db66f9a	0.08908005
111	0xbc95b1fc	-0.018273346
112	0xbc938324	-0.018006869
113	0x3e0210e6	0.12701759
114	0xbbe5d7bb	-0.0070142425
115	0x3d9d37ec	0.07676682
116	0xbd53a335	-0.05166932
117	0x3d8055d4	0.062663704
118	0x3dba845f	0.09107279
119	0x3dba99db	0.09111377
120	0xbd89f294	-0.06735721
121	0xbde86a7d	-0.11348436
122	0x3d2aef39	0.041732047
123	0xbcb364ee	-0.021898713
124	0x3df85393	0.121253155
125	0xbd064fb4	-0.032790855
126	0xbd373280	-0.044725895
127	0x3ca70db6	0.02039228
128	0xbdc99aa3	-0.09843948
129	0xbdc2ecad	-0.095177986
130	0x3d929f7a	0.07159324
131	0x3cdaec64	0.026724048
132	0x3d0be85f	0.034157153
133	0xbc4f978a	-0.012670407
134	0x3d857abf	0.065175526
135	0xbd4da9af	-0.05021065
136	0x3d500964	0.050790206
137	0x3d228764	0.0396799
138	0x3ce76c18	0.028249785
139	0xbdb0e3dc	-0.08637211
140	0xbdd4023c	-0.10351989
141	0xbd824ca1	-0.06362272
142	0xbdc30ab0	-0.09523523
143	0xbded4fc2	-0.11587478
144	0xbcd1dbab	-0.025617441
145	0xbb98caa9	-0.004662831
146	0x3d01c984	0.03168632
147	0xbd66c03e	-0.05633568
148	0xbdbc30b0	-0.09188974
149	0xbcd98df7	-0.026556952
150	0x3d87e4d9	0.06635446
151	0x3d6a3981	0.057183746
152	0x3de65528	0.11246711
153	0x3d5198b8	0.051171035
154	0x3db53874	0.08848658
155	0xbc475453	-0.012166101
156	0xbd9236ff	-0.07139396
157	0x3d39692c	0.045266315
158	0x3dc52ca6	0.09627657
159	0xbd0dca14	-0.034616545
160	0xbc317c28	-0.010832824
161	0xbde24239	-0.11047787
162	0x3dcddb59	0.10051603
163	0xbdb7b56f	-0.089701526
164	0xbd719561	-0.05898035
165	0x3c0c637b	0.00856864
166	0xbd8f0b25	-0.069845475
167	0x3c57ea53	0.013178426
168	0xbd65764a	-0.056021012
169	0x3dec0fe5	0.11526469
170	0xbda2c4b0	-0.079476714
171	0x3c95bfa9	0.018279867
172	0xbe01eb60	-0.12687445
173	0x3becd624	0.007227676
174	0x3db28503	0.08716776
175	0xbd988724	-0.07447651
176	0xbd2f7857	-0.042839374
177	0x3b3203c2	0.0027162884
178	0xbbec89fa	-0.0072185965
179	0x3cc227f8	0.0237007
180	0x3de009f5	0.10939399
181	0xbd2de570	-0.042455137
182	0x3d33a1ab	0.04385535
183	0xbdc822ce	-0.097722635
184	0xbd87d322	-0.06632067
185	0xbda05cdb	-0.07830211
186	0x3ce0a81c	0.02742391
187	0x3ce4bae3	0.027921146
188	0x3dfd14bd	0.12357471
189	0x3d5fe174	0.05465837
190	0xbbf156f6	-0.007365103
191	0xbd2ce481	-0.042210106
192	0x3c49fadf	0.012327879
193	0xbd6d20bb	-0.057892542
194	0x3c59d407	0.01329518
195	0xbd26689a	-0.0406271
196	0xbda44300	-0.08020592
197	0x3c0f24a0	0.008736759
198	0x3d4146f4	0.047186807
199	0xbcf8516e	-0.030312266
200	0x3bc3a740	0.0059708655
201	0xbdf80664	-0.12110594
202	0xbd4dcd34	-0.050244525
203	0xbe007a1b	-0.1254658
204	0x3dfcb746	0.12339644
205	0x3dd3d6a7	0.10343676
206	0xbdd7f552	-0.10544838
207	0xbdc8654d	-0.097849466
208	0xbdd03700	-0.101667404
209	0x3d97b9b9	0.07408471
210	0x3ce610b8	0.028084144
211	0xbdeadbe9	-0.11467726
212	0xbd1b9ca1	-0.03799117
213	0x3dc228a3	0.09480407
214	0xbc0b5740	-0.008504689
215	0xbdecd77e	-0.115645394
216	0x3d236846	0.039894365
217	0x3e045d6e	0.12926266
218	0x3df29d1d	0.11846373
219	0x3c0dea01	0.008661748
220	0xbcd8fe9f	-0.0264886
221	0x3c8ada8e	0.016949918
222	0x3db2e544	0.08735135
223	0x3d775dfc	0.060392365
224	0xbdcae93d	-0.09907768
225	0x3d874dec	0.06606659
226	0x3da27ad4	0.07933584
227	0xbdd78500	-0.105234146
228	0xbdb742f3	-0.089483164
229	0x3db00dce	0.08596383
230	0x3d7df9b9	0.062005732
231	0xbdd67555	-0.10471598
232	0x3d25a883	0.04044391
233	0x3d9c6fb1	0.07638491
234	0x3c900d00	0.017584324
235	0x3d93971b	0.072065555
236	0x3d3191f3	0.04335208
237	0x3d1b421c	0.037904844
238	0x3d85d511	0.0653478
239	0xbd3c2d2d	-0.04594152
240	0xbb0b35ae	-0.0021241712
241	0xbce310d4	-0.027717985
242	0xbd05ebc5	-0.03269555
243	0x3d1dff0e	0.038573317
244	0xbd395edb	-0.045256477
245	0xbc6d47b0	-0.014482424
246	0x3de8dfde	0.11370824
247	0x3d20ba82	0.039240368
248	0x3e05dfb2	0.13073614
249	0xbacd7746	-0.0015675805
250	0xbd1a55c8	-0.037679464
251	0x3de1f34e	0.11032735
252	0xbda4cdcd	-0.08047066
253	0x3d7dafc4	0.0619352
254	0x3de1c89e	0.11024593
255	0xbd8bf401	-0.068336494

struct_net.net.1.bias f4 [64]
0	0x3d804a1e	0.06264137
1	0x3d6e96b5	0.058249194
2	0x3d8aa1be	0.06769131
3	0xbc9e81cd	-0.019349003
4	0xbd9e3c79	-0.07726378
5	0x3dc83f5b	0.09777709
6	0xbce3e095	-0.02781705
7	0xbcb57dd0	-0.022154719
8	0xbda1f797	-0.07908552
9	0x3d9f8608	0.07789236
10	0x3dc620d7	0.096742325
11	0xbd7d39a7	-0.06182256
12	0x3dde08da	0.10841532
13	0x3da7c513	0.08191886
14	0x3d0df0d9	0.03465352
15	0xbd7672dc	-0.060168132
16	0xbdad95b3	-0.084758185
17	0x3c3905da	0.011292899
18	0x3d73f2fd	0.059557904
19	0xbdac50f9	-0.08413882
20	0x3dc39f8d	0.09551916
21	0x3dd1a611	0.10236753
22	0x3b8e788f	0.004347868
23	0xbe024687	-0.12722217
24	0xbdccad4e	-0.09993993
25	0x3db97d5b	0.09057113
26	0x3c2765b3	0.010217118
27	0xbc8dca4e	-0.01730838
28	0xbd9a112e	-0.07522808
29	0xbd6d7c1e	-0.057979695
30	0x3ddb7477	0.10715573
31	0x3d6db8c9	0.058037553
32	0x3c0a6fb8	0.008449487
33	0x3dc2634c	0.094915956
34	0xbd967ec9	-0.07348401
35	0xbd29b62d	-0.041433502
36	0x3d335f37	0.043791976
37	0xbdc2aa51	-0.095051415
38	0x3df2a8e3	0.11848619
39	0x3da755ab	0.08170637
40	0x3cbe06c8	0.023196593
41	0xbdc7391f	-0.09727692
42	0x3dbe5ca6	0.09295015
43	0xbd38b617	-0.04509553
44	0xbc9497e8	-0.01813884
45	0x3dd9fde6	0.106441304
46	0xbcf35840	-0.029705167
47	0x3defb432	0.117042914
48	0xbc393549	-0.011304208
49	0xbd9b2b49	-0.07576615
50	0xbcf36594	-0.029711522
51	0xbde79603	-0.11307909
52	0x3d998b98	0.074973285
53	0x3d7448d0	0.059639752
54	0x3c876e92	0.016532216
55	0xbde05ccc	-0.109551996
56	0x3d296216	0.041353308
57	0x3d9596f6	0.07304184
58	0x3dda3e8d	0.10656462
59	0xbd6070dc	-0.05479513
60	0x3d48bea2	0.049009927
61	0x3d6941ba	0.056947447
62	0xbc9ba6b6	-0.019000392
63	0x3c685744	0.014180962
